…
            "Downloading data from https://storage.googleapis.com/tensorflow/keras-applications/vgg16/vgg16_weights_tf_dim_ordering_tf_kernels_notop.h5\n",
            "58889256/58889256 [==============================] - 0s 0us/step\n",
            "Model: \"vgg16\"\n",
            "_________________________________________________________________\n",
            " Layer (type)                Output Shape              Param #   \n",
            "=================================================================\n",
            " input_1 (InputLayer)        [(None, 150, 150, 3)]     0         \n",
            "                                                                 \n",
            " block1_conv1 (Conv2D)       (None, 150, 150, 64)      1792      \n",
            "                                                                 \n",
            " block1_conv2 (Conv2D)       (None, 150, 150, 64)      36928     \n",
            "                                                                 \n",
            " block1_pool (MaxPooling2D)  (None, 75, 75, 64)        0         \n",
            "                                                                 \n",
            " block2_conv1 (Conv2D)       (None, 75, 75, 128)       73856     \n",
            "                                                                 \n",
            " block2_conv2 (Conv2D)       (None, 75, 75, 128)       147584    \n",
            "                                                                 \n",
            " block2_pool (MaxPooling2D)  (None, 37, 37, 128)       0         \n",
            "                                                                 \n",
            " block3_conv1 (Conv2D)       (None, 37, 37, 256)       295168    \n",
            "                                                                 \n",
            " block3_conv2 (Conv2D)       (None, 37, 37, 256)       590080    \n",
            "                                                                 \n",
            " block3_conv3 (Conv2D)       (None, 37, 37, 256)       590080    \n",
            "                                                                 \n",
            " block3_pool (MaxPooling2D)  (None, 18, 18, 256)       0         \n",
            "                                                                 \n",
            " block4_conv1 (Conv2D)       (None, 18, 18, 512)       1180160   \n",
            "                                                                 \n",
            " block4_conv2 (Conv2D)       (None, 18, 18, 512)       2359808   \n",
            "                                                                 \n",
            " block4_conv3 (Conv2D)       (None, 18, 18, 512)       2359808   \n",
            "                                                                 \n",
            " block4_pool (MaxPooling2D)  (None, 9, 9, 512)         0         \n",
            "                                                                 \n",
            " block5_conv1 (Conv2D)       (None, 9, 9, 512)         2359808   \n",
            "                                                                 \n",
            " block5_conv2 (Conv2D)       (None, 9, 9, 512)         2359808   \n",
            "                                                                 \n",
            " block5_conv3 (Conv2D)       (None, 9, 9, 512)         2359808   \n",
            "                                                                 \n",
            " block5_pool (MaxPooling2D)  (None, 4, 4, 512)         0         \n",
            "                                                                 \n",
            "=================================================================\n",
            "Total params: 14,714,688\n",
            "Trainable params: 14,714,688\n",
            "Non-trainable params: 0\n",
            "_________________________________________________________________\n"
          ]
…
